…
I0420 03:13:08.946327 22014 net.cpp:93] Initializing net from parameters: 
name: "net"
state {
  phase: TEST
  level: 0
}
layer {
  name: "data"
  type: "Data"
  top: "data"
  top: "label"
  include {
    phase: TEST
  }
  bottom_data_type: CAFFE_FLOAT
  compute_data_type: CAFFE_FLOAT
  top_data_type: CAFFE_FLOAT
  transform_param {
    mirror: false
    crop_size: 227
    mean_file: "/media/scratch/ILSVRC2012/data//imagenet_mean.binaryproto"
  }
  data_param {
    source: "/media/scratch/ILSVRC2012/data//ilsvrc12_val_lmdb"
    batch_size: 128
    backend: LMDB
  }
}
layer {
  name: "data_data_0_converted"
  type: "Quantizer"
  bottom: "data"
  top: "data_data_0_converted"
  loss_weight: 0
  bottom_data_type: CAFFE_FLOAT
  compute_data_type: CAFFE_FLOAT
  top_data_type: CAFFE_HALF
  bottom_quantizer {
    name: "data"
  }
  top_quantizer {
    name: "data"
  }
}
layer {
  name: "conv1"
  type: "Convolution"
  bottom: "data_data_0_converted"
  top: "conv1"
  param {
    lr_mult: 1
    decay_mult: 1
  }
  param {
    lr_mult: 2
    decay_mult: 0
  }
  bottom_data_type: CAFFE_HALF
  compute_data_type: CAFFE_HALF
  top_data_type: CAFFE_HALF
  bottom_quantizer {
    name: "data"
  }
  convolution_param {
    num_output: 96
    kernel_size: 11
    stride: 4
    weight_filler {
      type: "gaussian"
      std: 0.01
    }
    bias_filler {
      type: "constant"
      value: 0
    }
  }
}
layer {
  name: "relu1"
  type: "ReLU"
  bottom: "conv1"
  top: "relu1"
  bottom_data_type: CAFFE_HALF
  compute_data_type: CAFFE_HALF
  top_data_type: CAFFE_HALF
  bottom_quantizer {
    name: "conv1"
  }
}
layer {
  name: "pool1"
  type: "Pooling"
  bottom: "relu1"
  top: "pool1"
  bottom_data_type: CAFFE_HALF
  compute_data_type: CAFFE_HALF
  top_data_type: CAFFE_HALF
  bottom_quantizer {
    name: "relu1"
  }
  pooling_param {
    pool: MAX
    kernel_size: 3
    stride: 2
  }
}
layer {
  name: "pool1_pool1_0_converted"
  type: "Quantizer"
  bottom: "pool1"
  top: "pool1_pool1_0_converted"
  loss_weight: 0
  bottom_data_type: CAFFE_HALF
  compute_data_type: CAFFE_HALF
  top_data_type: CAFFE_FLOAT
  bottom_quantizer {
    name: "pool1"
  }
  top_quantizer {
    name: "pool1"
  }
}
layer {
  name: "norm1"
  type: "LRN"
  bottom: "pool1_pool1_0_converted"
  top: "norm1"
  bottom_data_type: CAFFE_FLOAT
  compute_data_type: CAFFE_FLOAT
  top_data_type: CAFFE_FLOAT
  bottom_quantizer {
    name: "pool1"
  }
  lrn_param {
    local_size: 5
    alpha: 0.0001
    beta: 0.75
  }
}
layer {
  name: "norm1_norm1_0_converted"
  type: "Quantizer"
  bottom: "norm1"
  top: "norm1_norm1_0_converted"
  loss_weight: 0
  bottom_data_type: CAFFE_FLOAT
  compute_data_type: CAFFE_FLOAT
  top_data_type: CAFFE_HALF
  bottom_quantizer {
    name: "norm1"
  }
  top_quantizer {
    name: "norm1"
  }
}
layer {
  name: "conv2"
  type: "Convolution"
  bottom: "norm1_norm1_0_converted"
  top: "conv2"
  param {
    lr_mult: 1
    decay_mult: 1
  }
  param {
    lr_mult: 2
    decay_mult: 0
  }
  bottom_data_type: CAFFE_HALF
  compute_data_type: CAFFE_HALF
  top_data_type: CAFFE_HALF
  bottom_quantizer {
    name: "norm1"
  }
  convolution_param {
    num_output: 256
    pad: 2
    kernel_size: 5
    group: 2
    weight_filler {
      type: "gaussian"
      std: 0.01
    }
    bias_filler {
      type: "constant"
      value: 1
    }
  }
}
layer {
  name: "relu2"
  type: "ReLU"
  bottom: "conv2"
  top: "relu2"
  bottom_data_type: CAFFE_HALF
  compute_data_type: CAFFE_HALF
  top_data_type: CAFFE_HALF
  bottom_quantizer {
    name: "conv2"
  }
}
layer {
  name: "pool2"
  type: "Pooling"
  bottom: "relu2"
  top: "pool2"
  bottom_data_type: CAFFE_HALF
  compute_data_type: CAFFE_HALF
  top_data_type: CAFFE_HALF
  bottom_quantizer {
    name: "relu2"
  }
  pooling_param {
    pool: MAX
    kernel_size: 3
    stride: 2
  }
}
layer {
  name: "pool2_pool2_0_converted"
  type: "Quantizer"
  bottom: "pool2"
  top: "pool2_pool2_0_converted"
  loss_weight: 0
  bottom_data_type: CAFFE_HALF
  compute_data_type: CAFFE_HALF
  top_data_type: CAFFE_FLOAT
  bottom_quantizer {
    name: "pool2"
  }
  top_quantizer {
    name: "pool2"
  }
}
layer {
  name: "norm2"
  type: "LRN"
  bottom: "pool2_pool2_0_converted"
  top: "norm2"
  bottom_data_type: CAFFE_FLOAT
  compute_data_type: CAFFE_FLOAT
  top_data_type: CAFFE_FLOAT
  bottom_quantizer {
    name: "pool2"
  }
  lrn_param {
    local_size: 5
    alpha: 0.0001
    beta: 0.75
  }
}
layer {
  name: "norm2_norm2_0_converted"
  type: "Quantizer"
  bottom: "norm2"
  top: "norm2_norm2_0_converted"
  loss_weight: 0
  bottom_data_type: CAFFE_FLOAT
  compute_data_type: CAFFE_FLOAT
  top_data_type: CAFFE_HALF
  bottom_quantizer {
    name: "norm2"
  }
  top_quantizer {
    name: "norm2"
  }
}
layer {
  name: "conv3"
  type: "Convolution"
  bottom: "norm2_norm2_0_converted"
  top: "conv3"
  param {
    lr_mult: 1
    decay_mult: 1
  }
  param {
    lr_mult: 2
    decay_mult: 0
  }
  bottom_data_type: CAFFE_HALF
  compute_data_type: CAFFE_HALF
  top_data_type: CAFFE_HALF
  bottom_quantizer {
    name: "norm2"
  }
  convolution_param {
    num_output: 384
    pad: 1
    kernel_size: 3
    weight_filler {
      type: "gaussian"
      std: 0.01
    }
    bias_filler {
      type: "constant"
      value: 0
    }
  }
}
layer {
  name: "relu3"
  type: "ReLU"
  bottom: "conv3"
  top: "relu3"
  bottom_data_type: CAFFE_HALF
  compute_data_type: CAFFE_HALF
  top_data_type: CAFFE_HALF
  bottom_quantizer {
    name: "conv3"
  }
}
layer {
  name: "conv4"
  type: "Convolution"
  bottom: "relu3"
  top: "conv4"
  param {
    lr_mult: 1
    decay_mult: 1
  }
  param {
    lr_mult: 2
    decay_mult: 0
  }
  bottom_data_type: CAFFE_HALF
  compute_data_type: CAFFE_HALF
  top_data_type: CAFFE_HALF
  bottom_quantizer {
    name: "relu3"
  }
  convolution_param {
    num_output: 384
    pad: 1
    kernel_size: 3
    group: 2
    weight_filler {
      type: "gaussian"
      std: 0.01
    }
    bias_filler {
      type: "constant"
      value: 1
    }
  }
}
layer {
  name: "relu4"
  type: "ReLU"
  bottom: "conv4"
  top: "relu4"
  bottom_data_type: CAFFE_HALF
  compute_data_type: CAFFE_HALF
  top_data_type: CAFFE_HALF
  bottom_quantizer {
    name: "conv4"
  }
}
layer {
  name: "conv5"
  type: "Convolution"
  bottom: "relu4"
  top: "conv5"
  param {
    lr_mult: 1
    decay_mult: 1
  }
  param {
    lr_mult: 2
    decay_mult: 0
  }
  bottom_data_type: CAFFE_HALF
  compute_data_type: CAFFE_HALF
  top_data_type: CAFFE_HALF
  bottom_quantizer {
    name: "relu4"
  }
  convolution_param {
    num_output: 256
    pad: 1
    kernel_size: 3
    group: 2
    weight_filler {
      type: "gaussian"
      std: 0.01
    }
    bias_filler {
      type: "constant"
      value: 1
    }
  }
}
layer {
  name: "relu5"
  type: "ReLU"
  bottom: "conv5"
  top: "relu5"
  bottom_data_type: CAFFE_HALF
  compute_data_type: CAFFE_HALF
  top_data_type: CAFFE_HALF
  bottom_quantizer {
    name: "conv5"
  }
}
layer {
  name: "pool5"
  type: "Pooling"
  bottom: "relu5"
  top: "pool5"
  bottom_data_type: CAFFE_HALF
  compute_data_type: CAFFE_HALF
  top_data_type: CAFFE_HALF
  bottom_quantizer {
    name: "relu5"
  }
  pooling_param {
    pool: MAX
    kernel_size: 3
    stride: 2
  }
}
layer {
  name: "fc6"
  type: "InnerProduct"
  bottom: "pool5"
  top: "fc6"
  param {
    lr_mult: 1
    decay_mult: 1
  }
  param {
    lr_mult: 2
    decay_mult: 0
  }
  bottom_data_type: CAFFE_HALF
  compute_data_type: CAFFE_HALF
  top_data_type: CAFFE_HALF
  bottom_quantizer {
    name: "pool5"
  }
  inner_product_param {
    num_output: 4096
    weight_filler {
      type: "gaussian"
      std: 0.005
    }
    bias_filler {
      type: "constant"
      value: 1
    }
  }
}
layer {
  name: "relu6"
  type: "ReLU"
  bottom: "fc6"
  top: "relu6"
  bottom_data_type: CAFFE_HALF
  compute_data_type: CAFFE_HALF
  top_data_type: CAFFE_HALF
  bottom_quantizer {
    name: "fc6"
  }
}
layer {
  name: "drop6"
  type: "Dropout"
  bottom: "relu6"
  top: "drop6"
  bottom_data_type: CAFFE_HALF
  compute_data_type: CAFFE_HALF
  top_data_type: CAFFE_HALF
  bottom_quantizer {
    name: "relu6"
  }
  dropout_param {
    dropout_ratio: 0.5
  }
}
layer {
  name: "fc7"
  type: "InnerProduct"
  bottom: "drop6"
  top: "fc7"
  param {
    lr_mult: 1
    decay_mult: 1
  }
  param {
    lr_mult: 2
    decay_mult: 0
  }
  bottom_data_type: CAFFE_HALF
  compute_data_type: CAFFE_HALF
  top_data_type: CAFFE_HALF
  bottom_quantizer {
    name: "drop6"
  }
  inner_product_param {
    num_output: 4096
    weight_filler {
      type: "gaussian"
      std: 0.005
    }
    bias_filler {
      type: "constant"
      value: 1
    }
  }
}
layer {
  name: "relu7"
  type: "ReLU"
  bottom: "fc7"
  top: "relu7"
  bottom_data_type: CAFFE_HALF
  compute_data_type: CAFFE_HALF
  top_data_type: CAFFE_HALF
  bottom_quantizer {
    name: "fc7"
  }
}
layer {
  name: "drop7"
  type: "Dropout"
  bottom: "relu7"
  top: "drop7"
  bottom_data_type: CAFFE_HALF
  compute_data_type: CAFFE_HALF
  top_data_type: CAFFE_HALF
  bottom_quantizer {
    name: "relu7"
  }
  dropout_param {
    dropout_ratio: 0.5
  }
}
layer {
  name: "drop7_drop7_0_converted"
  type: "Quantizer"
  bottom: "drop7"
  top: "drop7_drop7_0_converted"
  loss_weight: 0
  bottom_data_type: CAFFE_HALF
  compute_data_type: CAFFE_HALF
  top_data_type: CAFFE_FLOAT
  bottom_quantizer {
    name: "drop7"
  }
  top_quantizer {
    name: "drop7"
  }
}
layer {
  name: "fc8"
  type: "InnerProduct"
  bottom: "drop7_drop7_0_converted"
  top: "fc8"
  param {
    lr_mult: 1
    decay_mult: 1
  }
  param {
    lr_mult: 2
    decay_mult: 0
  }
  bottom_data_type: CAFFE_FLOAT
  compute_data_type: CAFFE_FLOAT
  top_data_type: CAFFE_FLOAT
  bottom_quantizer {
    name: "drop7"
  }
  inner_product_param {
    num_output: 1000
    weight_filler {
      type: "gaussian"
      std: 0.01
    }
    bias_filler {
      type: "constant"
      value: 0
    }
  }
}
layer {
  name: "accuracy"
  type: "Accuracy"
  bottom: "fc8"
  bottom: "label"
  top: "accuracy"
  include {
    phase: TEST
  }
  bottom_quantizer {
    name: "fc8"
  }
  bottom_quantizer {
    name: "label"
  }
  accuracy_param {
    top_k: 5
  }
}
I0420 03:13:08.946641 22014 layer_factory.cpp:74] Creating layer data
I0420 03:13:08.946911 22014 db_lmdb.cpp:40] Opened lmdb /media/scratch/ILSVRC2012/data//ilsvrc12_val_lmdb
I0420 03:13:08.946950 22014 net.cpp:158] Creating Layer data
I0420 03:13:08.946965 22014 net.cpp:481] data -> data
I0420 03:13:08.947059 22014 net.cpp:481] data -> label
I0420 03:13:08.947105 22014 data_transformer.cpp:27] Loading mean file from: /media/scratch/ILSVRC2012/data//imagenet_mean.binaryproto
I0420 03:13:08.955221 22014 data_layer.cpp:47] output data size: 128,3,227,227
I0420 03:13:09.107987 22014 base_data_layer.cpp:76] Initializing prefetch
I0420 03:13:09.108245 22014 base_data_layer.cpp:79] Prefetch initialized.
I0420 03:13:09.108265 22014 net.cpp:196] Setting up data
I0420 03:13:09.108343 22014 net.cpp:206] Top shape: 128 3 227 227 (19787136)
I0420 03:13:09.108363 22014 net.cpp:206] Top shape: 128 (128)
I0420 03:13:09.108371 22014 net.cpp:217] Memory required for data: 79149056 B
I0420 03:13:09.108471 22014 layer_factory.cpp:74] Creating layer data_data_0_converted
I0420 03:13:09.108566 22014 net.cpp:158] Creating Layer data_data_0_converted
I0420 03:13:09.108587 22014 net.cpp:515] data_data_0_converted <- data
I0420 03:13:09.108642 22014 net.cpp:481] data_data_0_converted -> data_data_0_converted
I0420 03:13:09.108901 22014 net.cpp:196] Setting up data_data_0_converted
I0420 03:13:09.108922 22014 net.cpp:206] Top shape: 128 3 227 227 (19787136)
I0420 03:13:09.108932 22014 net.cpp:217] Memory required for data: 118723328 B
I0420 03:13:09.108969 22014 layer_factory.cpp:74] Creating layer conv1
I0420 03:13:09.109042 22014 net.cpp:158] Creating Layer conv1
I0420 03:13:09.109056 22014 net.cpp:515] conv1 <- data_data_0_converted
I0420 03:13:09.109093 22014 net.cpp:481] conv1 -> conv1
I0420 03:13:09.124155 22014 net.cpp:196] Setting up conv1
I0420 03:13:09.124222 22014 net.cpp:206] Top shape: 128 96 55 55 (37171200)
I0420 03:13:09.124248 22014 net.cpp:217] Memory required for data: 193065728 B
I0420 03:13:09.124446 22014 layer_factory.cpp:74] Creating layer relu1
I0420 03:13:09.124529 22014 net.cpp:158] Creating Layer relu1
I0420 03:13:09.124557 22014 net.cpp:515] relu1 <- conv1
I0420 03:13:09.124595 22014 net.cpp:481] relu1 -> relu1
I0420 03:13:09.125892 22014 net.cpp:196] Setting up relu1
I0420 03:13:09.125918 22014 net.cpp:206] Top shape: 128 96 55 55 (37171200)
I0420 03:13:09.125927 22014 net.cpp:217] Memory required for data: 267408128 B
I0420 03:13:09.125965 22014 layer_factory.cpp:74] Creating layer pool1
I0420 03:13:09.126024 22014 net.cpp:158] Creating Layer pool1
I0420 03:13:09.126039 22014 net.cpp:515] pool1 <- relu1
I0420 03:13:09.126072 22014 net.cpp:481] pool1 -> pool1
I0420 03:13:09.135602 22014 net.cpp:196] Setting up pool1
I0420 03:13:09.135634 22014 net.cpp:206] Top shape: 128 96 27 27 (8957952)
I0420 03:13:09.135644 22014 net.cpp:217] Memory required for data: 285324032 B
I0420 03:13:09.135694 22014 layer_factory.cpp:74] Creating layer pool1_pool1_0_converted
I0420 03:13:09.135738 22014 net.cpp:158] Creating Layer pool1_pool1_0_converted
I0420 03:13:09.135752 22014 net.cpp:515] pool1_pool1_0_converted <- pool1
I0420 03:13:09.135793 22014 net.cpp:481] pool1_pool1_0_converted -> pool1_pool1_0_converted
I0420 03:13:09.135967 22014 net.cpp:196] Setting up pool1_pool1_0_converted
I0420 03:13:09.135985 22014 net.cpp:206] Top shape: 128 96 27 27 (8957952)
I0420 03:13:09.135994 22014 net.cpp:211]     with loss weight 2.44503e-36
I0420 03:13:09.136008 22014 net.cpp:217] Memory required for data: 321155840 B
I0420 03:13:09.136039 22014 layer_factory.cpp:74] Creating layer norm1
I0420 03:13:09.136090 22014 net.cpp:158] Creating Layer norm1
I0420 03:13:09.136101 22014 net.cpp:515] norm1 <- pool1_pool1_0_converted
I0420 03:13:09.136147 22014 net.cpp:481] norm1 -> norm1
I0420 03:13:09.137169 22014 net.cpp:196] Setting up norm1
I0420 03:13:09.137181 22014 net.cpp:206] Top shape: 128 96 27 27 (8957952)
I0420 03:13:09.137187 22014 net.cpp:217] Memory required for data: 356987648 B
I0420 03:13:09.137207 22014 layer_factory.cpp:74] Creating layer norm1_norm1_0_converted
I0420 03:13:09.137231 22014 net.cpp:158] Creating Layer norm1_norm1_0_converted
I0420 03:13:09.137238 22014 net.cpp:515] norm1_norm1_0_converted <- norm1
I0420 03:13:09.137257 22014 net.cpp:481] norm1_norm1_0_converted -> norm1_norm1_0_converted
I0420 03:13:09.137342 22014 net.cpp:196] Setting up norm1_norm1_0_converted
I0420 03:13:09.137353 22014 net.cpp:206] Top shape: 128 96 27 27 (8957952)
I0420 03:13:09.137358 22014 net.cpp:217] Memory required for data: 374903552 B
I0420 03:13:09.137382 22014 layer_factory.cpp:74] Creating layer conv2
I0420 03:13:09.137419 22014 net.cpp:158] Creating Layer conv2
I0420 03:13:09.137428 22014 net.cpp:515] conv2 <- norm1_norm1_0_converted
I0420 03:13:09.137446 22014 net.cpp:481] conv2 -> conv2
I0420 03:13:09.176764 22014 net.cpp:196] Setting up conv2
I0420 03:13:09.176785 22014 net.cpp:206] Top shape: 128 256 27 27 (23887872)
I0420 03:13:09.176792 22014 net.cpp:217] Memory required for data: 422679296 B
I0420 03:13:09.176863 22014 layer_factory.cpp:74] Creating layer relu2
I0420 03:13:09.176892 22014 net.cpp:158] Creating Layer relu2
I0420 03:13:09.176903 22014 net.cpp:515] relu2 <- conv2
I0420 03:13:09.176923 22014 net.cpp:481] relu2 -> relu2
I0420 03:13:09.177556 22014 net.cpp:196] Setting up relu2
I0420 03:13:09.177570 22014 net.cpp:206] Top shape: 128 256 27 27 (23887872)
I0420 03:13:09.177575 22014 net.cpp:217] Memory required for data: 470455040 B
I0420 03:13:09.177597 22014 layer_factory.cpp:74] Creating layer pool2
I0420 03:13:09.177624 22014 net.cpp:158] Creating Layer pool2
I0420 03:13:09.177633 22014 net.cpp:515] pool2 <- relu2
I0420 03:13:09.177654 22014 net.cpp:481] pool2 -> pool2
I0420 03:13:09.183110 22014 net.cpp:196] Setting up pool2
I0420 03:13:09.183135 22014 net.cpp:206] Top shape: 128 256 13 13 (5537792)
I0420 03:13:09.183140 22014 net.cpp:217] Memory required for data: 481530624 B
I0420 03:13:09.183169 22014 layer_factory.cpp:74] Creating layer pool2_pool2_0_converted
I0420 03:13:09.183198 22014 net.cpp:158] Creating Layer pool2_pool2_0_converted
I0420 03:13:09.183208 22014 net.cpp:515] pool2_pool2_0_converted <- pool2
I0420 03:13:09.183230 22014 net.cpp:481] pool2_pool2_0_converted -> pool2_pool2_0_converted
I0420 03:13:09.183331 22014 net.cpp:196] Setting up pool2_pool2_0_converted
I0420 03:13:09.183341 22014 net.cpp:206] Top shape: 128 256 13 13 (5537792)
I0420 03:13:09.183346 22014 net.cpp:211]     with loss weight 2.44503e-36
I0420 03:13:09.183356 22014 net.cpp:217] Memory required for data: 503681792 B
I0420 03:13:09.183373 22014 layer_factory.cpp:74] Creating layer norm2
I0420 03:13:09.183404 22014 net.cpp:158] Creating Layer norm2
I0420 03:13:09.183411 22014 net.cpp:515] norm2 <- pool2_pool2_0_converted
I0420 03:13:09.183430 22014 net.cpp:481] norm2 -> norm2
I0420 03:13:09.184347 22014 net.cpp:196] Setting up norm2
I0420 03:13:09.184360 22014 net.cpp:206] Top shape: 128 256 13 13 (5537792)
I0420 03:13:09.184366 22014 net.cpp:217] Memory required for data: 525832960 B
I0420 03:13:09.184387 22014 layer_factory.cpp:74] Creating layer norm2_norm2_0_converted
I0420 03:13:09.184412 22014 net.cpp:158] Creating Layer norm2_norm2_0_converted
I0420 03:13:09.184420 22014 net.cpp:515] norm2_norm2_0_converted <- norm2
I0420 03:13:09.184439 22014 net.cpp:481] norm2_norm2_0_converted -> norm2_norm2_0_converted
I0420 03:13:09.184522 22014 net.cpp:196] Setting up norm2_norm2_0_converted
I0420 03:13:09.184533 22014 net.cpp:206] Top shape: 128 256 13 13 (5537792)
I0420 03:13:09.184538 22014 net.cpp:217] Memory required for data: 536908544 B
I0420 03:13:09.184562 22014 layer_factory.cpp:74] Creating layer conv3
I0420 03:13:09.184595 22014 net.cpp:158] Creating Layer conv3
I0420 03:13:09.184612 22014 net.cpp:515] conv3 <- norm2_norm2_0_converted
I0420 03:13:09.184634 22014 net.cpp:481] conv3 -> conv3
I0420 03:13:09.288523 22014 net.cpp:196] Setting up conv3
I0420 03:13:09.288555 22014 net.cpp:206] Top shape: 128 384 13 13 (8306688)
I0420 03:13:09.288563 22014 net.cpp:217] Memory required for data: 553521920 B
I0420 03:13:09.288653 22014 layer_factory.cpp:74] Creating layer relu3
I0420 03:13:09.288691 22014 net.cpp:158] Creating Layer relu3
I0420 03:13:09.288704 22014 net.cpp:515] relu3 <- conv3
I0420 03:13:09.288727 22014 net.cpp:481] relu3 -> relu3
I0420 03:13:09.289383 22014 net.cpp:196] Setting up relu3
I0420 03:13:09.289397 22014 net.cpp:206] Top shape: 128 384 13 13 (8306688)
I0420 03:13:09.289403 22014 net.cpp:217] Memory required for data: 570135296 B
I0420 03:13:09.289429 22014 layer_factory.cpp:74] Creating layer conv4
I0420 03:13:09.289470 22014 net.cpp:158] Creating Layer conv4
I0420 03:13:09.289479 22014 net.cpp:515] conv4 <- relu3
I0420 03:13:09.289502 22014 net.cpp:481] conv4 -> conv4
I0420 03:13:09.365380 22149 data_layer.cpp:132] Prefetch batch: 256 ms.
I0420 03:13:09.365434 22149 data_layer.cpp:133]      Read time: 1.205 ms.
I0420 03:13:09.365439 22149 data_layer.cpp:134] Transform time: 254.188 ms.
I0420 03:13:09.369541 22014 net.cpp:196] Setting up conv4
I0420 03:13:09.369570 22014 net.cpp:206] Top shape: 128 384 13 13 (8306688)
I0420 03:13:09.369577 22014 net.cpp:217] Memory required for data: 586748672 B
I0420 03:13:09.369639 22014 layer_factory.cpp:74] Creating layer relu4
I0420 03:13:09.369673 22014 net.cpp:158] Creating Layer relu4
I0420 03:13:09.369686 22014 net.cpp:515] relu4 <- conv4
I0420 03:13:09.369711 22014 net.cpp:481] relu4 -> relu4
I0420 03:13:09.371315 22014 net.cpp:196] Setting up relu4
I0420 03:13:09.371330 22014 net.cpp:206] Top shape: 128 384 13 13 (8306688)
I0420 03:13:09.371336 22014 net.cpp:217] Memory required for data: 603362048 B
I0420 03:13:09.371362 22014 layer_factory.cpp:74] Creating layer conv5
I0420 03:13:09.371394 22014 net.cpp:158] Creating Layer conv5
I0420 03:13:09.371402 22014 net.cpp:515] conv5 <- relu4
I0420 03:13:09.371425 22014 net.cpp:481] conv5 -> conv5
I0420 03:13:09.427613 22014 net.cpp:196] Setting up conv5
I0420 03:13:09.427646 22014 net.cpp:206] Top shape: 128 256 13 13 (5537792)
I0420 03:13:09.427654 22014 net.cpp:217] Memory required for data: 614437632 B
I0420 03:13:09.427731 22014 layer_factory.cpp:74] Creating layer relu5
I0420 03:13:09.427762 22014 net.cpp:158] Creating Layer relu5
I0420 03:13:09.427773 22014 net.cpp:515] relu5 <- conv5
I0420 03:13:09.427796 22014 net.cpp:481] relu5 -> relu5
I0420 03:13:09.428436 22014 net.cpp:196] Setting up relu5
I0420 03:13:09.428450 22014 net.cpp:206] Top shape: 128 256 13 13 (5537792)
I0420 03:13:09.428457 22014 net.cpp:217] Memory required for data: 625513216 B
I0420 03:13:09.428479 22014 layer_factory.cpp:74] Creating layer pool5
I0420 03:13:09.428508 22014 net.cpp:158] Creating Layer pool5
I0420 03:13:09.428515 22014 net.cpp:515] pool5 <- relu5
I0420 03:13:09.428536 22014 net.cpp:481] pool5 -> pool5
I0420 03:13:09.434132 22014 net.cpp:196] Setting up pool5
I0420 03:13:09.434154 22014 net.cpp:206] Top shape: 128 256 6 6 (1179648)
I0420 03:13:09.434159 22014 net.cpp:217] Memory required for data: 627872512 B
I0420 03:13:09.434193 22014 layer_factory.cpp:74] Creating layer fc6
I0420 03:13:09.434227 22014 net.cpp:158] Creating Layer fc6
I0420 03:13:09.434238 22014 net.cpp:515] fc6 <- pool5
I0420 03:13:09.434263 22014 net.cpp:481] fc6 -> fc6
I0420 03:13:09.622591 22149 data_layer.cpp:132] Prefetch batch: 257 ms.
I0420 03:13:09.622643 22149 data_layer.cpp:133]      Read time: 1.153 ms.
I0420 03:13:09.622649 22149 data_layer.cpp:134] Transform time: 254.921 ms.
I0420 03:13:09.875339 22149 data_layer.cpp:132] Prefetch batch: 252 ms.
I0420 03:13:09.875388 22149 data_layer.cpp:133]      Read time: 1.064 ms.
I0420 03:13:09.875393 22149 data_layer.cpp:134] Transform time: 250.511 ms.
I0420 03:13:10.131443 22149 data_layer.cpp:132] Prefetch batch: 256 ms.
I0420 03:13:10.131492 22149 data_layer.cpp:133]      Read time: 1.092 ms.
I0420 03:13:10.131510 22149 data_layer.cpp:134] Transform time: 253.782 ms.
I0420 03:13:13.656286 22014 net.cpp:196] Setting up fc6
I0420 03:13:13.656342 22014 net.cpp:206] Top shape: 128 4096 (524288)
I0420 03:13:13.656352 22014 net.cpp:217] Memory required for data: 628921088 B
I0420 03:13:13.656445 22014 layer_factory.cpp:74] Creating layer relu6
I0420 03:13:13.656497 22014 net.cpp:158] Creating Layer relu6
I0420 03:13:13.656515 22014 net.cpp:515] relu6 <- fc6
I0420 03:13:13.656549 22014 net.cpp:481] relu6 -> relu6
I0420 03:13:13.657529 22014 net.cpp:196] Setting up relu6
I0420 03:13:13.657543 22014 net.cpp:206] Top shape: 128 4096 (524288)
I0420 03:13:13.657549 22014 net.cpp:217] Memory required for data: 629969664 B
I0420 03:13:13.657570 22014 layer_factory.cpp:74] Creating layer drop6
I0420 03:13:13.657603 22014 net.cpp:158] Creating Layer drop6
I0420 03:13:13.657613 22014 net.cpp:515] drop6 <- relu6
I0420 03:13:13.657634 22014 net.cpp:481] drop6 -> drop6
I0420 03:13:13.658233 22014 net.cpp:196] Setting up drop6
I0420 03:13:13.658246 22014 net.cpp:206] Top shape: 128 4096 (524288)
I0420 03:13:13.658251 22014 net.cpp:217] Memory required for data: 631018240 B
I0420 03:13:13.658272 22014 layer_factory.cpp:74] Creating layer fc7
I0420 03:13:13.658298 22014 net.cpp:158] Creating Layer fc7
I0420 03:13:13.658304 22014 net.cpp:515] fc7 <- drop6
I0420 03:13:13.658324 22014 net.cpp:481] fc7 -> fc7
I0420 03:13:15.485939 22014 net.cpp:196] Setting up fc7
I0420 03:13:15.485990 22014 net.cpp:206] Top shape: 128 4096 (524288)
I0420 03:13:15.485999 22014 net.cpp:217] Memory required for data: 632066816 B
I0420 03:13:15.486094 22014 layer_factory.cpp:74] Creating layer relu7
I0420 03:13:15.486150 22014 net.cpp:158] Creating Layer relu7
I0420 03:13:15.486168 22014 net.cpp:515] relu7 <- fc7
I0420 03:13:15.486203 22014 net.cpp:481] relu7 -> relu7
I0420 03:13:15.487159 22014 net.cpp:196] Setting up relu7
I0420 03:13:15.487172 22014 net.cpp:206] Top shape: 128 4096 (524288)
I0420 03:13:15.487177 22014 net.cpp:217] Memory required for data: 633115392 B
I0420 03:13:15.487196 22014 layer_factory.cpp:74] Creating layer drop7
I0420 03:13:15.487221 22014 net.cpp:158] Creating Layer drop7
I0420 03:13:15.487228 22014 net.cpp:515] drop7 <- relu7
I0420 03:13:15.487246 22014 net.cpp:481] drop7 -> drop7
I0420 03:13:15.487879 22014 net.cpp:196] Setting up drop7
I0420 03:13:15.487891 22014 net.cpp:206] Top shape: 128 4096 (524288)
I0420 03:13:15.487896 22014 net.cpp:217] Memory required for data: 634163968 B
I0420 03:13:15.487920 22014 layer_factory.cpp:74] Creating layer drop7_drop7_0_converted
I0420 03:13:15.487946 22014 net.cpp:158] Creating Layer drop7_drop7_0_converted
I0420 03:13:15.487953 22014 net.cpp:515] drop7_drop7_0_converted <- drop7
I0420 03:13:15.487973 22014 net.cpp:481] drop7_drop7_0_converted -> drop7_drop7_0_converted
I0420 03:13:15.488073 22014 net.cpp:196] Setting up drop7_drop7_0_converted
I0420 03:13:15.488085 22014 net.cpp:206] Top shape: 128 4096 (524288)
I0420 03:13:15.488090 22014 net.cpp:211]     with loss weight 2.44503e-36
I0420 03:13:15.488099 22014 net.cpp:217] Memory required for data: 636261120 B
I0420 03:13:15.488126 22014 layer_factory.cpp:74] Creating layer fc8
I0420 03:13:15.488162 22014 net.cpp:158] Creating Layer fc8
I0420 03:13:15.488169 22014 net.cpp:515] fc8 <- drop7_drop7_0_converted
I0420 03:13:15.488190 22014 net.cpp:481] fc8 -> fc8
I0420 03:13:15.877131 22014 net.cpp:196] Setting up fc8
I0420 03:13:15.877180 22014 net.cpp:206] Top shape: 128 1000 (128000)
I0420 03:13:15.877190 22014 net.cpp:217] Memory required for data: 636773120 B
I0420 03:13:15.877291 22014 layer_factory.cpp:74] Creating layer accuracy
I0420 03:13:15.877346 22014 net.cpp:158] Creating Layer accuracy
I0420 03:13:15.877364 22014 net.cpp:515] accuracy <- fc8
I0420 03:13:15.877389 22014 net.cpp:515] accuracy <- label
I0420 03:13:15.877409 22014 net.cpp:481] accuracy -> accuracy
I0420 03:13:15.878564 22014 net.cpp:196] Setting up accuracy
I0420 03:13:15.878576 22014 net.cpp:206] Top shape: 1 (1)
I0420 03:13:15.878589 22014 net.cpp:217] Memory required for data: 636773124 B
I0420 03:13:15.878602 22014 net.cpp:288] accuracy does not need backward computation.
I0420 03:13:15.878609 22014 net.cpp:288] fc8 does not need backward computation.
I0420 03:13:15.878615 22014 net.cpp:288] drop7_drop7_0_converted does not need backward computation.
I0420 03:13:15.878623 22014 net.cpp:288] drop7 does not need backward computation.
…
